DL Projects/PyTorchSeries/BAnkData_NN_model.pth (torch, 21420 bytes, 5 tensors)

layer1.weight f4 [64, 39]
0	0x3dd63285	0.104588546
1	0xbda5d99d	-0.08098147
2	0x3e2cce87	0.16875659
3	0xbe08dc5c	-0.1336531
4	0x3da1a9b1	0.07893694
5	0xbcb817f5	-0.022472361
6	0xbd2b48c3	-0.041817438
7	0xbd58117e	-0.052751057
8	0x3e0c177a	0.1368083
9	0x3e3d46f1	0.18484093
10	0xbc0bc9b1	-0.008531974
11	0x3a932808	0.001122714
12	0xbde60ded	-0.11233125
13	0x3e002f70	0.12518096
14	0xbe2d1152	-0.16901138
15	0x3dd4648e	0.10370742
16	0xbd515447	-0.051105764
17	0x3c9b9803	0.018993383
18	0x3d5208ab	0.051277798
19	0xbafe4907	-0.0019400426
20	0xbe53a0db	-0.2066683
21	0x3cc2d73f	0.023784278
22	0xbddd7f54	-0.108153015
23	0xbd7a3160	-0.061082244
24	0xbdf0ed94	-0.117640644
25	0xbd37720f	-0.04478651
26	0x3decab6f	0.11556136
27	0xbdc1e9c7	-0.094684176
28	0x3dbbd67a	0.091717675
29	0xbdfca3eb	-0.12335952
30	0x3dd1ef65	0.10250739
31	0x3e62f4c1	0.22163679
32	0x3a9e345e	0.001207005
33	0xbe192f32	-0.1495941
34	0x3e4956e8	0.19662058
35	0x3e290dd1	0.16509177
36	0xbdb95776	-0.09049885
37	0x3cf4795a	0.029843021
38	0xbca6c60a	-0.020358104
39	0xbda38d94	-0.07985988
40	0x3ddb1037	0.10696452
41	0x3d71b451	0.059009854
42	0xbe155d0f	-0.1458628
43	0x3b87ac16	0.0041403873
44	0x3d4bb622	0.049734242
45	0xbdad2d5f	-0.084559195
46	0x3d5ec37d	0.05438565
47	0xbe2b4336	-0.16724858
48	0x3a7a249a	0.0009542197
49	0xbdaabfb5	-0.083373465
50	0x3d3e004e	0.04638701
51	0xbe1738dd	-0.14767785
52	0xbd955d7c	-0.07293221
53	0x3d865fe6	0.0656126
54	0xbe07ca61	-0.13260795
55	0x3cf9b8a5	0.030483553
56	0xbe4043b4	-0.18775827
57	0x3cdcf212	0.026970897
58	0xbd612f1e	-0.054976575
59	0xbd9d78b2	-0.076890364
60	0xbd5ed5b0	-0.054403007
61	0xbc53f406	-0.012936598
62	0xbda3ba1c	-0.07994482
63	0xbe3e06e4	-0.18557316
64	0xbe53b306	-0.20673761
65	0x3e2b18c1	0.16708662
66	0x3d910754	0.07081476
67	0xbdd4a218	-0.103824794
68	0xbe6472ce	-0.2230942
69	0x3d40d1da	0.04707513
70	0x3e49cdcd	0.19707413
71	0xbe4283b6	-0.18995556
72	0xbdadaaee	-0.08479868
73	0x3e844e43	0.2584096
74	0x3ba2364e	0.0049503213
75	0xbd058404	-0.032596603
76	0x3e27c166	0.1638237
77	0xbded9a1e	-0.11601661
78	0x3e2047b7	0.15652357
79	0xbe0a947d	-0.13533206
80	0x3d3d8fbb	0.04627965
81	0x3e1bb828	0.15206969
82	0xbd1c94f0	-0.038227975
83	0x3d5edf91	0.05441243
84	0x3db85937	0.090013914
85	0xbe0c4d0e	-0.13701269
86	0x3e05a884	0.13052565
87	0xbd60f68e	-0.054922633
88	0x3e21cc85	0.15800674
89	0xbd37f901	-0.044915203
90	0x3d6c5364	0.057696715
91	0x3db8b3c3	0.09018662
92	0xbd9326af	-0.07185113
93	0x3d076354	0.03305371
94	0x3c0190ba	0.007908041
95	0x3dfbb237	0.12289851
96	0xbb1c0022	-0.002380379
97	0x3d88b6f6	0.06675522
98	0xbd5472ef	-0.05186742
99	0x3dfa241c	0.122139186
100	0x3d70251c	0.05862914
101	0xbac6001b	-0.0015106233
102	0x3dfb17d4	0.12260404
103	0xbb392224	-0.002824911
104	0x3d7c7906	0.061638854
105	0xbe1096f4	-0.14120084
106	0xbd97cb4b	-0.07411822
107	0xbd93e66e	-0.07221685
108	0x3da8cee6	0.08242588
109	0x3c8a07ec	0.01684948
110	0x3e0e1932	0.13876799
111	0x3dc987b0	0.098403335
112	0xbd1d2de9	-0.03837386
113	0xbe1992cb	-0.14997403
114	0xbdbd5ac2	-0.09245826
115	0xbe696f11	-0.22796275
116	0x3c97dfe8	0.018539384
117	0xbdbb119f	-0.0913422
118	0xbb1f3ae4	-0.0024296576
119	0x3cc30875	0.023807744
120	0x3d6134d2	0.054982014
121	0xbe13bdba	-0.14427844
122	0xbe1a8c35	-0.15092547
123	0xbdbe0623	-0.09278514
124	0x3d7dfc48	0.062008172
125	0xbe1ab974	-0.15109807
126	0x3d606848	0.05478695
127	0xbe216dfe	-0.15764615
128	0x3c94bd36	0.018156629
129	0x3e1d8d5e	0.15385959
130	0xbe483241	-0.1955042
131	0x3d285ba1	0.04110301
132	0x3dbcb96f	0.09215056
133	0xbdb0ebc1	-0.086387165
134	0x3d5a1132	0.053239055
135	0x3d61c2de	0.05511748
136	0xbe089532	-0.13338163
137	0xbdacc860	-0.08436656
138	0xbe3e2769	-0.18569721
139	0xbe536b2f	-0.20646356
140	0xbda823ac	-0.08209929
141	0xbdc11de9	-0.09429533
142	0x3dd9c0dc	0.10632488
143	0x3df8f94c	0.121569246
144	0xbbaf0894	-0.0053415988
145	0xbe2f2589	-0.17104162
146	0xbdb88ddb	-0.09011432
147	0xbe0d1352	-0.13776901
148	0x3e1a867c	0.15090364
149	0x3bbfaf1d	0.0058497326
150	0x3da19531	0.07889784
151	0x3df7910c	0.12088212
152	0xbd6af0da	-0.0573586
153	0xbdbb7be7	-0.09154492
154	0x3c8bbf71	0.01705906
155	0xbe47c615	-0.19509156
156	0xbdf906e8	-0.121595204
157	0x3df3d94f	0.11906683
158	0xbe1f6e5c	-0.15569443
159	0x3e2ea752	0.17056015
160	0xbd1bec25	-0.038067
161	0x3e49469b	0.1965584
162	0x3dab97c8	0.08378559
163	0xbdcd2bc1	-0.10018111
164	0x3e15d9d4	0.14633876
165	0x3d7f3760	0.06230867
166	0x3e04d583	0.12972073
167	0xbdd2f1aa	-0.103
168	0x3b641bbe	0.0034806575
169	0xbdd02aef	-0.10164439
170	0xbcbe1f9e	-0.023208436
171	0x3dc70962	0.097185865
172	0x3c94e70b	0.018176576
173	0x3e147aef	0.1450002
174	0xbdb772b7	-0.08957427
175	0x3e328b77	0.17436014
176	0xbda4a73f	-0.08039712
177	0x3cc4cc86	0.024023306
178	0x3d9aeb19	0.075643726
179	0xbe28d9d9	-0.16489352
180	0x3e362314	0.17786819
181	0xbd76301c	-0.060104474
182	0xbca4aa78	-0.020100817
183	0x3e3b4b8b	0.18290536
184	0x3e1ae092	0.1512473
185	0x3e04e11f	0.12976502
186	0xbc5d2742	-0.013498129
187	0xbc1efeef	-0.009704336
188	0x3cec8f9e	0.028877076
189	0x3da95453	0.08268037
190	0x3cd5aaf6	0.026082497
191	0xbdb57234	-0.08859673
192	0x3de008e1	0.109391935
193	0xbd99fe14	-0.07519165
194	0x3e029b88	0.12754643
195	0x3d761f20	0.060088277
196	0x3cfe1d37	0.03101979
197	0xbdaebb93	-0.08531871
198	0x3d9b2645	0.07575659
199	0x3e0a4c2e	0.13505623
200	0xbd382649	-0.044958387
201	0x3e1bee42	0.15227607
202	0x3d9abfe9	0.07556135
203	0x3d061b01	0.032740597
204	0xbe64d625	-0.22347315
205	0x3ddfa657	0.10920399
206	0x3d8c72a5	0.06857804
207	0xbc461e9e	-0.012092261
208	0x3e4a3945	0.19748409
209	0x3d928448	0.07154137
210	0x3df2b45d	0.11850808
211	0xbdda180c	-0.10649118
212	0x3e240fba	0.16021624
213	0x3dc810fb	0.09768864
214	0xbdb79fc0	-0.08966017
215	0x3c4d4313	0.012528199
216	0x3df8fff0	0.12158191
217	0x3d0386cb	0.03211097
218	0xbdf9df90	-0.12200844
219	0xbb522145	-0.0032063287
220	0x3d385094	0.04499872
221	0x3d579edd	0.05264174
222	0xbc21b234	-0.009869147
223	0xbdca04f3	-0.09864225
224	0x3d808519	0.06275386
225	0x3e14cf91	0.14532305
226	0xbd5dc107	-0.054139163
227	0x3e433f95	0.19067223
228	0x3dc3272e	0.09528957
229	0xbe52d11c	-0.20587581
230	0xbd65873f	-0.056037184
231	0xbd22c5a1	-0.039739255
232	0xbc8c9689	-0.017161625
233	0x3dad8f0a	0.08474548
234	0x3d020c34	0.03174992
235	0x3d33a167	0.043855097
236	0xbdaa4d92	-0.083155766
237	0xbdfe7741	-0.1242509
238	0x3d9c5d4d	0.07634983
239	0xbe4ed7ad	-0.20199461
240	0x3dc836ac	0.09776053
241	0x3d438fd0	0.047744572
242	0x3e0f1306	0.139721
243	0x3d7f4ee8	0.06233111
244	0x3d11afad	0.035567928
245	0xbced1cce	-0.0289444
246	0xbc6a589c	-0.014303353
247	0xbe0b1df8	-0.13585651
248	0xbe10e67b	-0.14150421
249	0xbd00eafc	-0.0314741
250	0x3d86acc5	0.06575922
251	0xbdfc4154	-0.12317148
252	0xbd1685ab	-0.03674857
253	0x3bac034b	0.005249416
254	0x3da66063	0.08123853
255	0xbdf903bd	-0.12158916

layer1.bias f4 [64]
0	0xbd15bfcc	-0.036559865
1	0xbe2de65f	-0.16982411
2	0xbd61ed44	-0.055157915
3	0xbe4e200d	-0.20129414
4	0xbd0356b5	-0.032065112
5	0x3de87b0a	0.11351593
6	0xbdc8c5ce	-0.09803353
7	0x3e42c1d9	0.1901926
8	0x3de4ef95	0.11178509
9	0xbd0647f5	-0.032783467
10	0x3dfdaa5d	0.1238601
11	0x3e3e974b	0.18612401
12	0xbdebf49e	-0.115212664
13	0x3e20c213	0.15699033
14	0xbda10c75	-0.07863704
15	0x3e00835d	0.12550111
16	0x3e0441e7	0.12915765
17	0xbe1f9d3a	-0.15587321
18	0xbccafd72	-0.024779055
19	0xbdf22b56	-0.11824672
20	0xbd3fea91	-0.04685456
21	0xbd3013e4	-0.04298772
22	0x3d3eb36b	0.046557825
23	0xbd5039b7	-0.05083629
24	0xbe1b6cea	-0.15178266
25	0x3da0a018	0.078430355
26	0xbc7c1a70	-0.015387163
27	0xbd8a3a2d	-0.067493774
28	0xbe2e6afe	-0.17033002
29	0xbe1b4b43	-0.15165429
30	0xbd7202ce	-0.059084706
31	0xbdebfec2	-0.115232006
32	0xbd01b0a8	-0.031662613
33	0x3dc64c9b	0.0968258
34	0x3c83be16	0.016081851
35	0xbd00fb73	-0.0314898
36	0xbe257fc8	-0.16162026
37	0x3b8c1db1	0.0042760004
38	0xbddeb9ed	-0.10875306
39	0xbcfa930d	-0.030587697
40	0x3d3879b0	0.045037925
41	0x3dcb9d8f	0.09942161
42	0xbb8fd443	-0.0043893172
43	0xbd6cfc5a	-0.05785785
44	0x3c204786	0.0097826775
45	0x3b015135	0.001973224
46	0xbe2328ac	-0.15933484
47	0xbb0b9573	-0.0021298795
48	0x3e310cbb	0.17290013
49	0x3d39f690	0.045401156
50	0x3cce3d07	0.025175584
51	0x3dff0b17	0.12453287
52	0x3c0ea51a	0.0087063555
53	0xbe136b58	-0.14396417
54	0x3be4cc7a	0.0069823833
55	0x3e0d5166	0.13800582
56	0xbda6599f	-0.081225626
57	0xbe236b20	-0.15958834
58	0x3dc64d40	0.09682703
59	0xbdd2027b	-0.10254379
60	0x3d012b4e	0.03153544
61	0x3c8323d2	0.016008291
62	0xbcd0546d	-0.025430882
63	0x3d84f7a3	0.064925455

layer2.weight f4 [32, 64]
0	0x3cc5d07b	0.024147263
1	0xbdf3e767	-0.11909371
2	0x3d9e623b	0.0773358
3	0x3d8bc4fb	0.068246804
4	0x3d2d4722	0.042304166
5	0xbc9d9e71	-0.01924059
6	0x3c93ae86	0.018027555
7	0x3e49f835	0.1972359
8	0xbacd2841	-0.0015652255
9	0x3d2f6b70	0.04282707
10	0xbcb809de	-0.022465643
11	0x3c10682d	0.0088139
12	0xbd5e470b	-0.05426697
13	0x3dc1938a	0.09451969
14	0xbb32ecd5	-0.0027301807
15	0xbdf2fdf8	-0.11864847
16	0xbcee1581	-0.029062988
17	0x3d2620df	0.040558692
18	0xbdb9d34f	-0.09073507
19	0xbd16d883	-0.036827575
20	0xbd040622	-0.03223241
21	0x3a843595	0.001008677
22	0x3cacccf4	0.021093823
23	0x3d956e2b	0.072964035
24	0x3d09cc8b	0.033642333
25	0xbd92f541	-0.07175685
26	0x3a69b66a	0.00089154264
27	0xbdec38cc	-0.11534271
28	0x3dd18c7a	0.10231872
29	0xbe0a6ddc	-0.1351847
30	0xbd1ea96e	-0.0387358
31	0x3caf6b9e	0.02141362
32	0xbc8da614	-0.017291106
33	0xbcdf60d0	-0.027267843
34	0x3df3b3d6	0.11899535
35	0xbd863302	-0.06552698
36	0x3de8240b	0.11335
37	0xbce809e9	-0.028325038
38	0xbdb73cf4	-0.08947173
39	0x3df529b0	0.11970842
40	0x3d4030a9	0.046921406
41	0xbd99eb15	-0.075155415
42	0x3c5da916	0.013529083
43	0x3d3e9c8f	0.046536025
44	0xbd6a874f	-0.057257947
45	0x3db64537	0.088999204
46	0xbc386feb	-0.011257152
47	0x3d626535	0.0552723
48	0x3dafc8da	0.08583231
49	0xbc313bef	-0.010817512
50	0xbdc30dae	-0.095240936
51	0xbe0e87d3	-0.13919
52	0x3e084aae	0.13309738
53	0xbd04f705	-0.03246214
54	0x3b69e5d4	0.0035689967
55	0xbd8d16a7	-0.06889086
56	0x3d0587a1	0.03260005
57	0xbda6ff24	-0.08154133
58	0x3d8a83ee	0.06763445
59	0xbe0da62c	-0.13832921
60	0x3d667bcd	0.05627041
61	0x39b42376	0.00034358696
62	0xbd383e53	-0.044981312
63	0xbd0cb49b	-0.034351926
64	0x3bcdcb62	0.0062803486
65	0xbd79bbc3	-0.06097008
66	0xbdc48855	-0.09596316
67	0x3d0d59cd	0.03450947
68	0xbae86b00	-0.0017732084
69	0x3d9cb909	0.0765248
70	0x3dbce0cf	0.09222566
71	0xbda0c973	-0.078509234
72	0x3d270879	0.040779565
73	0x3b394d80	0.0028274953
74	0x3d43aea4	0.047773972
75	0x3d086a99	0.033304784
76	0xbd1ca6db	-0.038245063
77	0xbda1a90f	-0.078935735
78	0x3ab02766	0.0013439476
79	0xbc6f0d10	-0.014590517
80	0xbcca165f	-0.02466887
81	0x3dd29f28	0.10284263
82	0xbd8c571c	-0.06852552
83	0xbd3cddd7	-0.04611
84	0x3d903e00	0.070430756
85	0x3df1bc2d	0.1180347
86	0x3c76e376	0.015068879
87	0xbd4dafb3	-0.050216388
88	0x3c4a3f52	0.012344198
89	0x3d56e842	0.052467592
90	0xbda469f3	-0.08028021
91	0xbcf70ec8	-0.030158415
92	0x3d4043dc	0.046939716
93	0x3d7f48e0	0.06232536
94	0x3d9014e4	0.070352346
95	0xbdc5f701	-0.09666253
96	0x3d8600ba	0.06543107
97	0x3dc21e3a	0.094784215
98	0xbd8e03be	-0.069343075
99	0xbc7969e7	-0.015223003
100	0x3dce908a	0.100861624
101	0xbdacbea2	-0.08434798
102	0xbdde0674	-0.108410746
103	0xbddf8770	-0.109145045
104	0xbe0e33c9	-0.13886942
105	0xbc575e63	-0.013145062
106	0xbd863a94	-0.06554142
107	0xbde6d5de	-0.11271261
108	0xbd116040	-0.03549218
109	0x3daa6644	0.08320287
110	0x3dcd0f41	0.10012675
111	0x3dbef496	0.09323995
112	0x3d330102	0.043702133
113	0x3d9bb647	0.07603126
114	0x3df10aab	0.11769613
115	0xbc99df40	-0.018783212
116	0x3be4aa9b	0.0069783456
117	0xbdbf19ac	-0.093310684
118	0xbdf9f1c2	-0.12204315
119	0xbdec249e	-0.11530422
120	0x3d3156e0	0.04329574
121	0xbadba0ad	-0.0016756259
122	0x3c34903a	0.011020714
123	0x3d27fa73	0.04101033
124	0xbd71c045	-0.059021253
125	0x3dddaab8	0.10823578
126	0x3c1c0e13	0.00952484
127	0xbdf97c5b	-0.12181922
128	0x3df1699b	0.11787721
129	0xbc763869	-0.015028098
130	0x3df799f7	0.12089913
131	0xbc72adb7	-0.014811925
132	0x3d8d7311	0.06906713
133	0x3c7a4596	0.01527538
134	0xbdc09ab0	-0.09404504
135	0x3e186835	0.14883502
136	0xbbfa39c4	-0.0076362807
137	0xbdb39015	-0.08767716
138	0x3dc7bf22	0.097532526
139	0x3da10ca4	0.07863739
140	0x3c9a2c62	0.018819991
141	0x3d968538	0.07349628
142	0xbddd6685	-0.1081057
143	0x3cc2674e	0.0237309
144	0x3dd64384	0.10462096
145	0xbccc4555	-0.024935404
146	0x3d4932b6	0.049120627
147	0x3deba39a	0.11505814
148	0xbde33f02	-0.11096002
149	0x3d807337	0.062719755
150	0xbdb79e97	-0.089657955
151	0xbc0bca12	-0.008532064
152	0xbd858df6	-0.065212175
153	0xbdb681f1	-0.08911503
154	0xbd8eeda0	-0.06978917
155	0xbde43dc4	-0.11144593
156	0x3d29e7d0	0.04148084
157	0xbdb1581f	-0.08659386
158	0x3de76730	0.11298978
159	0x3d9a2b0c	0.07527742
160	0xbd08069e	-0.033209436
161	0x3da47e42	0.08031894
162	0x3df74c53	0.120751046
163	0xbddd4385	-0.10803894
164	0x3d84716d	0.06466947
165	0x3db55b13	0.08855262
166	0x3d1b0369	0.03784505
167	0xbdbb5e6c	-0.09148869
168	0x3dbec897	0.09315603
169	0x3d9de5c3	0.07709839
170	0x3d4e3e23	0.050352227
171	0xbd44560c	-0.047933623
172	0xbc24f731	-0.010068701
173	0x3d730df8	0.059339494
174	0xbcd5b52e	-0.02608737
175	0x3d8cbcea	0.0687197
176	0x3d8c4be1	0.0685041
177	0x3dd0f944	0.10203794
178	0xbe0e5219	-0.13898505
179	0x3c865c5d	0.016401464
180	0xbd7727ab	-0.060340565
181	0xbd9b66ff	-0.07588004
182	0xbd26a3cd	-0.040683556
183	0x3da73706	0.08164792
184	0xba8f06a3	-0.0010912012
185	0xbdb8b313	-0.09018531
186	0x3d4273e0	0.04747379
187	0x3d4268ae	0.04746311
188	0xbc93277f	-0.01796317
189	0x3e23916c	0.15973443
190	0x3cab7285	0.02092863
191	0x3af9bc12	0.0019053242
192	0x3c7b23f2	0.015328394
193	0xbdd9f408	-0.106422484
194	0xbc8b667d	-0.017016644
195	0xbd5e7d10	-0.054318488
196	0x3d6317b0	0.055442512
197	0xbdd82db2	-0.10555591
198	0x3c905108	0.017616764
199	0xbb77845d	-0.0037768104
200	0xbdf78cf3	-0.12087431
201	0xbd1ede64	-0.038786307
202	0xbdeb8fca	-0.11502035
203	0x3ccad4d8	0.024759695
204	0xbccb4188	-0.024811521
205	0xbd7c3374	-0.061572507
206	0xbcc5cb08	-0.024144664
207	0x3d9f0b70	0.077658534
208	0x3d462c57	0.04838213
209	0xbdbde8ae	-0.09272896
210	0xbdd21c6a	-0.10259326
211	0xbd1e4e9f	-0.038649198
212	0xbddd8b08	-0.10817534
213	0xbd208b58	-0.03919539
214	0xbce0f888	-0.027462259
215	0xbc04e1f4	-0.008110512
216	0xbd3da724	-0.046301976
217	0x3dde9f74	0.10870257
218	0x3c880530	0.016604036
219	0xbd98e7e3	-0.07466104
220	0xbd184640	-0.03717637
221	0xbc7545d0	-0.014970258
222	0x398b7b01	0.0002660379
223	0x3c82a5a6	0.015948128
224	0x3ca2f6e0	0.01989311
225	0xbd9fdb2c	-0.078054756
226	0xbd7bc5b7	-0.061467852
227	0x3df45baa	0.11931546
228	0xbd08ddc0	-0.033414602
229	0x3d0c398d	0.034234572
230	0xbcef3298	-0.02919893
231	0xbde387e5	-0.11109904
232	0x3c0df800	0.008665085
233	0xbdf96d4a	-0.12179048
234	0xbd982b62	-0.074301496
235	0x3c1d85f1	0.009614454
236	0xbd716f75	-0.058944184
237	0xbdb107bc	-0.08644053
238	0xbce671c4	-0.02813042
239	0x3deed54e	0.116617784
240	0x3dd15bcf	0.10222589
241	0xbdc55346	-0.09635024
242	0x3b6b4900	0.0035901666
243	0xbdaad864	-0.083420545
244	0x3da048f8	0.07826418
245	0x3d056878	0.032570332
246	0xbd374b4d	-0.044749547
247	0x3da75132	0.08169784
248	0xbd5fee04	-0.05467035
249	0xbd8b5dbe	-0.06804989
250	0x3da0d7e6	0.07853679
251	0xbdc94996	-0.098284885
252	0xbd95b1ce	-0.07309304
253	0x3c0756e5	0.008260463
254	0x3d47a2a0	0.048739076
255	0x3c8e2cd3	0.017355358

layer2.bias f4 [32]
0	0x3d424b95	0.047435362
1	0x3d4fa6ef	0.05069631
2	0x3d7cd978	0.06173083
3	0x3de1b04d	0.11019955
4	0xbd83c056	-0.064331695
5	0xbde387af	-0.11109864
6	0x3d175094	0.03694208
7	0xbdb2b7df	-0.08726477
8	0x3d194b54	0.037425354
9	0x3da663e5	0.08124522
10	0xbd9e8e28	-0.07741958
11	0xbe0ef33d	-0.13959976
12	0x3e11036a	0.14161459
13	0xbdaaeff2	-0.08346547
14	0x3d92d14a	0.07168825
15	0xbd0730be	-0.03300547
16	0x3da87c2c	0.08226809
17	0x3da5c75f	0.08094668
18	0x3d0ba0ad	0.03408878
19	0xbd856bef	-0.06514727
20	0x3d8d39bf	0.0689578
21	0xbd86309b	-0.065522395
22	0xbdbcb146	-0.092135
23	0xbe041c7c	-0.12901491
24	0x3d090f81	0.03346205
25	0xbd62ae5b	-0.05534206
26	0xbba6d450	-0.0050912276
27	0x3d00e0cc	0.031464383
28	0x3d93abcf	0.07210504
29	0x3e2021c1	0.15637876
30	0x3bb2b7a4	0.0054540206
31	0xbba046e7	-0.0048912647

layer3.weight f4 [1, 32]
0	0xbc6f38c2	-0.014600934
1	0x3d8ac673	0.067761324
2	0xbe147955	-0.1449941
3	0x3e23c942	0.15994743
4	0x3ce194a6	0.027536701
5	0x3e132d3c	0.14372724
6	0xbdf2ed98	-0.11861724
7	0xbe209b39	-0.15684213
8	0xbc9300b6	-0.017944675
9	0xbd8025a0	-0.062571764
10	0xbe2adf4f	-0.16686748
11	0xbe1c443f	-0.15260409
12	0xbdc1ee33	-0.09469261
13	0xbd667ecd	-0.05627327
14	0xbdf0332d	-0.11728511
15	0x3dd9e502	0.10639383
16	0x3c86a405	0.016435632
17	0x3e19e940	0.15030384
18	0x3a9905d6	0.0011674713
19	0x3e2ad7cf	0.16683887
20	0xbdf839bf	-0.12120389
21	0x3d4140ac	0.047180817
22	0xbe212c1c	-0.15739483
23	0x3d9b169e	0.07572673
24	0xbd50679a	-0.050880052
25	0xbd09b5bd	-0.033620585
26	0x3e26498d	0.16238995
27	0xbd0a4c4a	-0.03376416
28	0x3d57f497	0.052723493
29	0xbdc0c788	-0.094130576
30	0xbe167fa9	-0.14697136
31	0xbd994301	-0.07483483
